…
Running with strategy:  <tensorflow.python.distribute.one_device_strategy.OneDeviceStrategy object at 0x2ac850a2b370>
Model summary:
Model: "model"
__________________________________________________________________________________________________
 Layer (type)                Output Shape                 Param #   Connected to                  
==================================================================================================
 input_1 (InputLayer)        [(None, 116, 12)]            0         []                            
                                                                                                  
 reshape (Reshape)           (None, 116, 12, 1)           0         ['input_1[0][0]']             
                                                                                                  
 conv2d (Conv2D)             (None, 116, 12, 32)          320       ['reshape[0][0]']             
                                                                                                  
 dropout (Dropout)           (None, 116, 12, 32)          0         ['conv2d[0][0]']              
                                                                                                  
 conv2d_1 (Conv2D)           (None, 116, 12, 32)          9248      ['dropout[0][0]']             
                                                                                                  
 max_pooling2d (MaxPooling2  (None, 58, 6, 32)            0         ['conv2d_1[0][0]']            
 D)                                                                                               
                                                                                                  
 conv2d_2 (Conv2D)           (None, 58, 6, 64)            18496     ['max_pooling2d[0][0]']       
                                                                                                  
 dropout_1 (Dropout)         (None, 58, 6, 64)            0         ['conv2d_2[0][0]']            
                                                                                                  
 conv2d_3 (Conv2D)           (None, 58, 6, 64)            36928     ['dropout_1[0][0]']           
                                                                                                  
 max_pooling2d_1 (MaxPoolin  (None, 29, 3, 64)            0         ['conv2d_3[0][0]']            
 g2D)                                                                                             
                                                                                                  
 conv2d_4 (Conv2D)           (None, 29, 3, 128)           73856     ['max_pooling2d_1[0][0]']     
                                                                                                  
 dropout_2 (Dropout)         (None, 29, 3, 128)           0         ['conv2d_4[0][0]']            
                                                                                                  
 conv2d_5 (Conv2D)           (None, 29, 3, 128)           147584    ['dropout_2[0][0]']           
                                                                                                  
 up_sampling2d (UpSampling2  (None, 58, 6, 128)           0         ['conv2d_5[0][0]']            
 D)                                                                                               
                                                                                                  
 concatenate (Concatenate)   (None, 58, 6, 192)           0         ['up_sampling2d[0][0]',       
                                                                     'conv2d_3[0][0]']            
                                                                                                  
 conv2d_6 (Conv2D)           (None, 58, 6, 64)            110656    ['concatenate[0][0]']         
                                                                                                  
 dropout_3 (Dropout)         (None, 58, 6, 64)            0         ['conv2d_6[0][0]']            
                                                                                                  
 conv2d_7 (Conv2D)           (None, 58, 6, 64)            36928     ['dropout_3[0][0]']           
                                                                                                  
 up_sampling2d_1 (UpSamplin  (None, 116, 12, 64)          0         ['conv2d_7[0][0]']            
 g2D)                                                                                             
                                                                                                  
 concatenate_1 (Concatenate  (None, 116, 12, 96)          0         ['up_sampling2d_1[0][0]',     
 )                                                                   'conv2d_1[0][0]']            
                                                                                                  
 conv2d_8 (Conv2D)           (None, 116, 12, 32)          27680     ['concatenate_1[0][0]']       
                                                                                                  
 dropout_4 (Dropout)         (None, 116, 12, 32)          0         ['conv2d_8[0][0]']            
                                                                                                  
 conv2d_9 (Conv2D)           (None, 116, 12, 32)          9248      ['dropout_4[0][0]']           
                                                                                                  
 up_sampling2d_2 (UpSamplin  (None, 116, 12, 32)          0         ['conv2d_9[0][0]']            
 g2D)                                                                                             
                                                                                                  
 conv2d_10 (Conv2D)          (None, 116, 12, 1)           289       ['up_sampling2d_2[0][0]']     
                                                                                                  
==================================================================================================
Total params: 471233 (1.80 MB)
Trainable params: 471233 (1.80 MB)
Non-trainable params: 0 (0.00 Byte)
__________________________________________________________________________________________________
…
