…
[PhysicalDevice(name='/physical_device:CPU:0', device_type='CPU'), PhysicalDevice(name='/physical_device:GPU:0', device_type='GPU')]
Running with strategy:  <tensorflow.python.distribute.one_device_strategy.OneDeviceStrategy object at 0x2ac1bc4f9b50>
Model summary:
Model: "model"
_________________________________________________________________
 Layer (type)                Output Shape              Param #   
=================================================================
 input_1 (InputLayer)        [(None, 116, 12)]         0         
                                                                 
 reshape (Reshape)           (None, 116, 12, 1)        0         
                                                                 
 conv2d (Conv2D)             (None, 116, 12, 32)       320       
                                                                 
 dropout (Dropout)           (None, 116, 12, 32)       0         
                                                                 
 conv2d_1 (Conv2D)           (None, 116, 12, 32)       9248      
                                                                 
 max_pooling2d (MaxPooling2  (None, 58, 6, 32)         0         
 D)                                                              
                                                                 
 conv2d_2 (Conv2D)           (None, 58, 6, 64)         18496     
                                                                 
 dropout_1 (Dropout)         (None, 58, 6, 64)         0         
                                                                 
 conv2d_3 (Conv2D)           (None, 58, 6, 64)         36928     
                                                                 
 max_pooling2d_1 (MaxPoolin  (None, 29, 3, 64)         0         
 g2D)                                                            
                                                                 
 conv2d_4 (Conv2D)           (None, 29, 3, 128)        73856     
                                                                 
 dropout_2 (Dropout)         (None, 29, 3, 128)        0         
                                                                 
 conv2d_5 (Conv2D)           (None, 29, 3, 128)        147584    
                                                                 
 up_sampling2d (UpSampling2  (None, 58, 6, 128)        0         
 D)                                                              
                                                                 
 conv2d_6 (Conv2D)           (None, 58, 6, 64)         73792     
                                                                 
 dropout_3 (Dropout)         (None, 58, 6, 64)         0         
                                                                 
 conv2d_7 (Conv2D)           (None, 58, 6, 64)         36928     
                                                                 
 up_sampling2d_1 (UpSamplin  (None, 116, 12, 64)       0         
 g2D)                                                            
                                                                 
 conv2d_8 (Conv2D)           (None, 116, 12, 32)       18464     
                                                                 
 dropout_4 (Dropout)         (None, 116, 12, 32)       0         
                                                                 
 conv2d_9 (Conv2D)           (None, 116, 12, 32)       9248      
                                                                 
 up_sampling2d_2 (UpSamplin  (None, 116, 12, 32)       0         
 g2D)                                                            
                                                                 
 conv2d_10 (Conv2D)          (None, 116, 12, 1)        289       
                                                                 
=================================================================
Total params: 425153 (1.62 MB)
Trainable params: 425153 (1.62 MB)
Non-trainable params: 0 (0.00 Byte)
_________________________________________________________________
2023-07-28 15:21:37.159558: W tensorflow/core/grappler/optimizers/data/auto_shard.cc:786] AUTO sharding policy will apply DATA sharding policy as it failed to apply FILE sharding policy because of the following reason: Found an unshardable source dataset: name: "TensorDataset/_1"
…
